{"format": "torch", "nodes": [{"name": "target_encoder", "id": 135960124171856, "class_name": "EEGTransformer(\n  (patch_embed): PatchEmbed(\n    (proj): Conv2d(1, 64, kernel_size=(1, 30), stride=(1, 30))\n  )\n  (chan_embed): Embedding(62, 64)\n  (blocks): ModuleList(\n    (0-1): 2 x Block(\n      (norm1): LayerNorm((64,), eps=1e-06, elementwise_affine=True)\n      (attn): Attention(\n        (qkv): Linear(in_features=64, out_features=192, bias=True)\n        (proj): Linear(in_features=64, out_features=64, bias=True)\n        (proj_drop): Dropout(p=0.0, inplace=False)\n      )\n      (drop_path): Identity()\n      (norm2): LayerNorm((64,), eps=1e-06, elementwise_affine=True)\n      (mlp): MLP(\n        (fc1): Linear(in_features=64, out_features=256, bias=True)\n        (act): GELU(approximate='none')\n        (fc2): Linear(in_features=256, out_features=64, bias=True)\n        (drop): Dropout(p=0.0, inplace=False)\n      )\n    )\n  )\n  (norm): LayerNorm((64,), eps=1e-06, elementwise_affine=True)\n)", "parameters": [["summary_token", [1, 1, 64]], ["patch_embed.proj.weight", [64, 1, 1, 30]], ["patch_embed.proj.bias", [64]], ["chan_embed.weight", [62, 64]], ["blocks.0.norm1.weight", [64]], ["blocks.0.norm1.bias", [64]], ["blocks.0.attn.qkv.weight", [192, 64]], ["blocks.0.attn.qkv.bias", [192]], ["blocks.0.attn.proj.weight", [64, 64]], ["blocks.0.att
…
"blocks.1.attn.proj.bias", [64]], ["blocks.1.norm2.weight", [64]], ["blocks.1.norm2.bias", [64]], ["blocks.1.mlp.fc1.weight", [256, 64]], ["blocks.1.mlp.fc1.bias", [256]], ["blocks.1.mlp.fc2.weight", [64, 256]], ["blocks.1.mlp.fc2.bias", [64]], ["norm.weight", [64]], ["norm.bias", [64]]], "output_shape": [[32, 90, 1, 64]], "num_parameters": [64, 1920, 64, 3968, 64, 64, 12288, 192, 4096, 64, 64, 64, 16384, 256, 16384, 64, 64, 64, 12288, 192, 4096, 64, 64, 64, 16384, 256, 16384, 64, 64, 64]}, {"name": "predictor", "id": 135960124277008, "class_name": "EEGTransformerPredictor(\n  (predictor_embed): Linear(in_features=64, out_features=64, bias=True)\n  (time_embed): RotaryEmbedding()\n  (predictor_blocks): ModuleList(\n    (0-1): 2 x Block(\n      (norm1): LayerNorm((64,), eps=1e-06, elementwise_affine=True)\n      (attn): Attention(\n        (qkv): Linear(in_features=64, out_features=192, bias=True)\n        (proj): Linear(in_features=64, out_features=64, bias=True)\n        (proj_drop): Dropout(p=0.0, inplace=False)\n      )\n      (drop_path): Identity()\n      (norm2): LayerNorm((64,), eps=1e-06, elementwise_affine=True)\n      (mlp): MLP(\n        (fc1): Linear(in_features=64, out_features=256, bias=True)\n        (act): GELU(approximate='none')\n        (fc2): Linear(in_features=256, out_features=64, bias=True)\n        (drop): Dropout(p=0.0, inplace=False)\n      )\n    )\n  )\n  (predictor_norm): LayerNorm((64,), eps=1e-06, elementwise_affine=True)\n  (predictor_proj): Linear(in_features=64, out_features=64, bias=True)\n)", "parameters": [["mask_token", [1, 1, 1, 64]], ["predictor_embed.weight", [64, 64]], ["predictor_embed.bias", [64]], ["time_embed.freqs", [4]], ["predictor_blocks.0.norm1.weight", [64]], ["predictor_blocks.0.norm1.bias", [64]], ["predictor_blocks.0.attn.qkv.weight", [192, 64]], ["predictor_blocks.0.attn.qkv.bias", [192]], ["predictor_blocks.0.attn.pr
…
.1.mlp.fc1.bias", [256]], ["predictor_blocks.1.mlp.fc2.weight", [64, 256]], ["predictor_blocks.1.mlp.fc2.bias", [64]], ["predictor_norm.weight", [64]], ["predictor_norm.bias", [64]], ["predictor_proj.weight", [64, 64]], ["predictor_proj.bias", [64]]], "output_shape": [[32, 200, 1, 64], [32, 200, 1, 64]], "num_parameters": [64, 4096, 64, 4, 64, 64, 12288, 192, 4096, 64, 64, 64, 16384, 256, 16384, 64, 64, 64, 12288, 192, 4096, 64, 64, 64, 16384, 256, 16384, 64, 64, 64, 4096, 64]}, {"name": "reconstructor", "id": 135960106278352, "class_name": "EEGTransformerReconstructor(\n  (reconstructor_embed): Linear(in_features=64, out_features=64, bias=True)\n  (time_embed): RotaryEmbedding()\n  (chan_embed): Embedding(62, 64)\n  (reconstructor_blocks): ModuleList(\n    (0-3): 4 x Block(\n      (norm1): LayerNorm((64,), eps=1e-06, elementwise_affine=True)\n      (attn): Attention(\n        (qkv): Linear(in_features=64, out_features=192, bias=True)\n        (proj): Linear(in_features=64, out_features=64, bias=True)\n        (proj_drop): Dropout(p=0.0, inplace=False)\n      )\n      (drop_path): Identity()\n      (norm2): LayerNorm((64,), eps=1e-06, elementwise_affine=True)\n      (mlp): MLP(\n        (fc1): Linear(in_features=64, out_features=256, bias=True)\n        (act): GELU(approximate='none')\n        (fc2): Linear(in_features=256, out_features=64, bias=True)\n        (drop): Dropout(p=0.0, inplace=False)\n      )\n    )\n  )\n  (reconstructor_norm): LayerNorm((64,), eps=1e-06, elementwise_affine=True)\n  (reconstructor_proj): Linear(in_features=64, out_features=30, bias=True)\n)", "parameters": [["mask_token", [1, 1, 64]], ["reconstructor_embed.weight", [64, 64]], ["reconstructor_embed.bias", [64]], ["time_embed.freqs", [4]], ["chan_embed.weight", [62, 64]], ["reconstructor_blocks.0.norm1.weight", [64]], ["reconstructor_blocks.0.norm1.bias", [64]], ["reconstructor_blocks.0.attn.qkv.weight", [192, 64]], ["reconstructor_blocks.
…
